trained_weights/Epoch59.pth (torch, 125557 bytes, 16 tensors)

e_conv_layer1.weight f4 [8, 3, 1, 1]
000000 2e 34 cf 3c 3b 8c 32 be 2b 6a 21 3e 54 12 bf bd
       0.025293436 -0.17436306 0.15763156 -0.09329668
000010 1f 11 96 bd 3e df 91 3d c7 0b 01 80 1f a8 00 80
       -0.07327484 0.07122658 -9.606e-41 -6.031e-41
000020 a2 36 01 00 ad 9c 00 00 37 f2 01 00 e1 02 01 00
       1.11434e-40 5.6205e-41 1.78726e-40 9.2868e-41
000030 3a fd 89 bd c0 79 b1 bd 62 f2 00 3d 3b 29 2e be
       -0.06737752 -0.086658 0.031481154 -0.17007916
000040 8a ca 18 3e b6 fb d1 3d a5 47 34 be 9c 09 51 3d
       0.14921013 0.10253088 -0.17605455 0.051034555
000050 41 87 03 bd 57 50 01 80 fb f1 01 80 b5 80 00 00
       -0.03211141 -1.20656e-40 -1.78642e-40 4.6171e-41

e_conv_layer1.bias f4 [8]
000000 30 21 80 bb 28 3a 86 3e 42 96 00 00 e8 b4 07 00
       -0.0039102063 0.26216245 5.3902e-41 7.07745e-40
000010 b1 41 88 3e 56 a5 13 3d 37 a8 02 3e e4 6f 37 80
       0.2661262 0.03604635 0.12759481 -5.091091e-39

e_conv_layer2.weight f4 [8, 8, 3, 3]
000000 26 85 01 80 4e 69 01 80 b7 21 00 80 66 98 00 80
       -1.396e-40 -1.29612e-40 -1.2095e-41 -5.467e-41
000010 3d e6 00 80 33 5f 00 80 7f 82 01 80 93 ab 00 80
       -8.2594e-41 -3.4151e-41 -1.38649e-40 -6.1549e-41
000020 7a 95 01 80 e8 b0 00 00 b8 8f 00 00 af 34 00 00
       -1.45458e-40 6.3462e-41 5.1557e-41 1.89e-41
000030 12 52 01 00 be da 00 00 1b 3a 01 00 a2 83 00 80
       1.21277e-40 7.847e-41 1.1268e-40 -4.7221e-41
000040 6c 94 01 80 96 24 00 80 59 a8 00 80 47 65 01 80
       -1.45079e-40 -1.3125e-41 -6.0392e-41 -1.28167e-40
000050 37 78 00 00 ed 06 02 80 41 2f 01 80 82 23 00 00
       4.3125e-41 -1.86155e-40 -1.08787e-40 1.2738e-41
000060 14 ab 00 00 bf 08 02 00 8b 4d 01 80 09 01 00 80
       6.1371e-41 1.86808e-40 -1.19653e-40 -3.71e-43
000070 3d 8b 01 80 e7 5d 00 00 4e d3 01 80 5f bf 01 00
       -1.41785e-40 3.3686e-41 -1.67637e-40 1.60487e-40
000080 56 ce 01 80 89 a8 01 80 2e 16 00 00 30 13 00 00
       -1.65855e-40 -1.52295e-40 7.957e-42 6.883e-42
000090 2e e1 00 80 00 d3 00 00 2c 24 01 80 4c 14 01 00
       -8.0779e-41 7.5693e-41 -1.04812e-40 9.9117e-41
0000a0 85 88 00 80 5f a8 00 00 6b ac 00 80 fb 01 01 80
       -4.8974e-41 6.04e-41 -6.1852e-41 -9.2546e-41
0000b0 36 bd 00 00 99 e5 00 80 98 78 01 80 0b 16 01 80
       6.7876e-41 -8.2364e-41 -1.35096e-40 -9.9743e-41
0000c0 e2 bf 01 80 aa 96 01 80 cb 5c 00 80 22 81 00 80
       -1.6067e-40 -1.45884e-40 -3.3288e-41 -4.6324e-41
0000d0 6b 5e 00 80 a9 d2 00 80 d9 75 01 00 bc 3a 00 80
       -3.3871e-41 -7.557e-41 1.34111e-40 -2.107e-41
0000e0 2e 99 01 00 21 88 00 80 93 07 01 80 f4 c3 00 80
       1.46786e-40 -4.8834e-41 -9.4553e-41 -7.0295e-41
0000f0 c1 fe 01 80 04 79 00 80 19 60 00 00 37 f2 01 80
       -1.83224e-40 -4.3412e-41 3.4473e-41 -1.78726e-40
000100 78 5c 00 00 4d 04 00 80 62 f3 01 00 32 a0 01 00
       3.3172e-41 -1.543e-42 1.79145e-40 1.49303e-40
000110 a7 84 00 00 23 97 01 80 3d 07 02 80 ab e3 01 00
       4.7587e-41 -1.46053e-40 -1.86268e-40 1.73507e-40
000120 fd dd c4 3d 25 e9 be 3d 52 a5 c1 3d 5f c4 d4 3d
       0.096126534 0.093218125 0.094553605 0.10389017
000130 d5 ff ce 3d cc 8f d1 3d a5 fb f0 3d 1e 0f eb 3d
       0.1010739 0.10232505 0.117667474 0.11477493
000140 be 2a ed 3d a7 5b 2d bd 64 bd 91 bc 96 4b 8d 38
       0.11580418 -0.042323735 -0.017790504 6.737483e-05
000150 1f 51 39 3c 2c e3 a5 bb be d8 0a bc 28 ba 60 3b
       0.011310845 -0.0050624814 -0.008474527 0.0034290645
000160 01 9d 93 ba 5e 35 9c 3c aa 13 01 00 fa 38 00 00
       -0.0011262001 0.019068416 9.889e-41 2.044e-41
000170 2b d5 00 00 f1 a6 01 00 4d 24 00 00 d3 27 00 80
       7.647e-41 1.51723e-40 1.3022e-41 -1.4286e-41
000180 89 f7 00 80 30 4a 01 80 7f 31 01 00 0d 9c 01 80
       -8.8799e-41 -1.18449e-40 1.09591e-40 -1.47816e-40
000190 ee e9 00 00 ec 4c 01 00 dc b8 00 00 74 84 01 80
       8.3918e-41 1.1943e-40 6.6315e-41 -1.39351e-40
0001a0 06 14 00 80 40 09 02 80 99 4b 00 00 b1 77 00 80
       -7.183e-42 -1.86989e-40 2.712e-41 -4.2937e-41
0001b0 1f b9 c9 bc f7 b6 6e 3c 8c aa 20 3c 0b 32 17 bc
       -0.024624405 0.014569989 0.009806287 -0.00922824
0001c0 9b c7 9b 3c e2 fd e5 3b 4d 81 19 bc d3 7a 3c bb
       0.019016078 0.0070187906 -0.009369207 -0.0028759732
0001d0 ab 44 46 3c 9f 0f 23 be e4 08 fe bd 1b e8 c0 bd
       0.012101333 -0.15923928 -0.124040395 -0.094192706
0001e0 4b 71 13 be fe 35 dd bd c7 da 51 bd df 54 d4 bd
       -0.14398687 -0.10801314 -0.051234033 -0.103677504
0001f0 5e b5 9b bd 2f c3 1e bd 29 41 e4 bb 03 7b f7 bc
       -0.076029524 -0.03876036 -0.0069657755 -0.030210024
000200 eb cf 8e bd b1 95 28 bc 51 5c fd bc 0b e8 81 bd
       -0.06973251 -0.010289595 -0.030927809 -0.06343087
000210 09 37 10 bd 3d ce 66 bd 93 d6 b2 bd d9 0b 01 00
       -0.035208736 -0.056349028 -0.08732333 9.6086e-41
000220 db ad 00 80 c4 df 01 80 f2 45 00 00 ac 04 01 80
       -6.2368e-41 -1.72107e-40 2.5092e-41 -9.3511e-41
000230 29 86 01 00 31 85 00 00 bd b7 00 00 6a c6 00 80
       1.39963e-40 4.778e-41 6.5913e-41 -7.1178e-41
000240 68 2d 01 80 78 01 02 80 2e f5 01 80 d5 a8 00 00
       -1.08124e-40 -1.84198e-40 -1.7979e-40 6.0566e-41
000250 34 f2 01 80 8f ff 01 80 d1 14 00 00 64 b8 01 80
       -1.78722e-40 -1.83513e-40 7.468e-42 -1.57982e-40
000260 04 32 01 80 e5 fd 00 00 1d 55 01 00 ca 1f 01 00
       -1.09778e-40 9.108e-41 1.22368e-40 1.03239e-40
000270 a7 47 01 80 0a 6d 00 80 14 2b 00 00 d0 9d 00 00
       -1.1754e-40 -3.9116e-41 1.5454e-41 5.6612e-41
000280 de 1d 01 80 f9 d9 00 00 1f c0 00 00 cd c6 00 00
       -1.0255e-40 7.8194e-41 6.892e-41 7.1316e-41
000290 d1 08 02 80 1a 46 00 80 aa a5 01 00 19 d3 01 80
       -1.86834e-40 -2.5148e-41 1.51265e-40 -1.67563e-40
0002a0 85 8b 01 00 4c 6c 00 80 0e c0 01 00 da 35 01 00
       1.41886e-40 -3.885e-41 1.60732e-40 1.11154e-40
0002b0 47 8b 00 80 a1 2d 01 00 de 40 01 80 3f 46 01 80
       -4.9963e-41 1.08204e-40 -1.15105e-40 -1.17035e-40
0002c0 69 37 00 80 48 12 01 80 17 3c 01 00 77 59 01 80
       -1.9877e-41 -9.8394e-41 1.13392e-40 -1.2393e-40
0002d0 16 4b 00 80 cf 0a 02 80 7d 0e 00 00 87 4f 01 00
       -2.6936e-41 -1.87548e-40 5.197e-42 1.20365e-40
0002e0 74 71 01 00 fb 27 01 80 81 a2 00 80 1c 48 01 80
       1.32535e-40 -1.06178e-40 -5.8295e-41 -1.17703e-40
0002f0 f3 6d 01 00 1e 90 00 80 1c da 00 80 73 57 01 80
       1.31278e-40 -5.17e-41 -7.8243e-41 -1.23206e-40
000300 5c 4f 01 00 29 89 01 80 30 35 00 80 fd 12 02 80
       1.20304e-40 -1.41039e-40 -1.908e-41 -1.90483e-40
000310 37 f5 01 00 84 ca 00 00 df f8 00 80 ba 43 01 00
       1.79802e-40 7.2649e-41 -8.9278e-41 1.16131e-40
000320 be 94 01 00 a5 94 01 00 5e f8 01 00 4d c6 00 80
       1.45194e-40 1.45159e-40 1.80933e-40 -7.1137e-41
000330 4b 1b 00 00 bd 45 00 80 c2 40 00 80 4f d2 00 80
       9.791e-42 -2.5017e-41 -2.3231e-41 -7.5445e-41
000340 79 0c 01 00 49 bb 01 00 24 32 01 80 9e 9d 01 00
       9.631e-41 1.59021e-40 -1.09823e-40 1.48378e-40
000350 fe c7 01 80 26 b6 00 00 fb 9b 00 80 33 89 00 80
       -1.63579e-40 6.5343e-41 -5.5955e-41 -4.9218e-41
000360 ea 2c 01 80 27 8e 00 00 fb 58 00 80 91 e9 01 00
       -1.07948e-40 5.0995e-41 -3.192e-41 1.75623e-40
000370 76 5d 00 00 0f 0b 01 00 65 58 00 80 ef 94 00 00
       3.3527e-41 9.5803e-41 -3.171e-41 5.3427e-41
000380 ea 90 01 80 7a e2 00 00 a7 3b 00 00 3c 9c 00 00
       -1.43821e-40 8.1244e-41 2.1399e-41 5.6046e-41
000390 05 d8 00 00 44 91 00 00 5e 43 01 00 a3 f9 00 80
       7.7493e-41 5.2111e-41 1.16002e-40 -8.9553e-41
0003a0 1c 99 01 00 08 99 00 80 71 18 01 00 a8 2e 00 00
       1.46761e-40 -5.4897e-41 1.00603e-40 1.6737e-41
0003b0 71 45 01 80 82 5e 01 80 1f 3b 00 80 61 61 00 00
       -1.16746e-40 -1.25739e-40 -2.1209e-41 3.4933e-41
0003c0 51 07 00 00 9c 1e 01 00 41 81 01 80 65 5d 01 00
       2.625e-42 1.02816e-40 -1.38203e-40 1.25339e-40
0003d0 23 01 01 00 a6 8d 00 00 7f d1 01 00 9e 01 01 00
       9.2243e-41 5.0814e-41 1.66989e-40 9.2416e-41
0003e0 97 e5 00 00 ac 40 00 00 7f 6c 01 80 d9 76 00 00
       8.2361e-41 2.32e-41 -1.30757e-40 4.2635e-41
0003f0 c6 38 01 80 4f 8c 01 00 b0 7b 00 80 e0 c0 01 80
       -1.12202e-40 1.42169e-40 -4.4371e-41 -1.61026e-40

e_conv_layer2.bias f4 [8]
000000 a4 bb 01 80 95 17 b8 3d e0 b5 01 00 4e fd 00 00
       -1.59148e-40 0.08988873 1.5708e-40 9.0869e-41
000010 30 b9 74 bd f4 35 01 80 41 52 01 80 26 15 02 00
       -0.05974692 -1.1119e-40 -1.21343e-40 1.91258e-40

e_conv_layer3.weight f4 [8, 8, 5, 5]
000000 59 94 00 00 87 6e 01 00 b7 1f 00 80 1e 29 00 80
       5.3217e-41 1.31485e-40 -1.1377e-41 -1.475e-41
000010 2e dd 01 00 cc 63 00 80 cc 01 00 00 ca 58 01 80
       1.7118e-40 -3.58e-41 6.45e-43 -1.23687e-40
000020 1d 89 01 80 95 42 01 00 f7 6e 01 00 f0 14 01 80
       -1.41022e-40 1.1572e-40 1.31642e-40 -9.9346e-41
000030 7b ec 01 80 0a 2f 02 00 b8 35 01 80 78 3f 00 00
       -1.76669e-40 2.00545e-40 -1.11106e-40 2.2768e-41
000040 66 9e 00 00 9c c6 00 80 24 35 01 00 16 4e 01 80
       5.6823e-41 -7.1248e-41 1.10899e-40 -1.19847e-40
000050 a9 58 01 80 8a 39 00 00 18 27 01 80 12 3e 01 00
       -1.23641e-40 2.0641e-41 -1.0586e-40 1.14102e-40
000060 2a f8 01 80 07 4d 9f bd c8 7e 95 bd 48 ca 96 bd
       -1.8086e-40 -0.07778364 -0.07299572 -0.07362801
000070 7e 45 a0 bd 3b a2 af bd c4 b0 8d bd cd 19 83 bd
       -0.078257546 -0.08575865 -0.06918481 -0.064014055
000080 07 1c 84 bd a2 e3 8d bd b5 12 9e bd a2 99 80 bd
       -0.06450658 -0.06928183 -0.07718412 -0.06279303
000090 76 54 6b bd 7d 48 6d bd a9 b5 80 bd ed 68 91 bd
       -0.057453595 -0.05793046 -0.06284649 -0.07100091
0000a0 35 2f 73 bd 85 b1 5d bd 47 1a 60 bd ac 9c 74 bd
       -0.059371192 -0.054124374 -0.05471256 -0.059719726
0000b0 cb 13 8b bd a5 af 6f bd 52 7e 5b bd bc b3 5e bd
       -0.067908846 -0.058517117 -0.053587265 -0.054370627
0000c0 3c 3e 73 bd 8f fd 89 bd 29 ce 00 00 a8 5d 01 80
       -0.059385523 -0.067378156 7.3956e-41 -1.25433e-40
0000d0 af 55 01 80 a2 75 01 00 b7 1c 00 80 18 11 00 00
       -1.22573e-40 1.34034e-40 -1.0301e-41 6.132e-42
0000e0 ec c4 01 00 45 67 00 80 c9 f6 01 80 d7 36 01 00
       1.62478e-40 -3.7046e-41 -1.80365e-40 1.11508e-40
0000f0 4c 5f 00 00 14 ec 00 00 e4 24 01 00 83 1c 01 00
       3.4186e-41 8.4689e-41 1.0507e-40 1.02064e-40
000100 71 33 01 00 69 83 00 80 04 05 02 00 23 2c 00 80
       1.10289e-40 -4.7141e-41 1.8547e-40 -1.5833e-41
000110 83 71 01 00 89 63 00 80 b4 01 00 80 9b 3d 01 80
       1.32556e-40 -3.5706e-41 -6.11e-43 -1.13935e-40
000120 b0 1b 02 80 cc 5d 01 00 04 4f 00 80 93 93 00 80
       -1.93603e-40 1.25483e-40 -2.8345e-41 -5.294e-41
000130 79 73 01 80 df 9d 00 80 56 67 01 00 35 1d 01 00
       -1.33259e-40 -5.6633e-41 1.28905e-40 1.02313e-40
000140 2e 77 01 00 95 27 01 00 36 16 01 80 c3 74 00 80
       1.34589e-40 1.06035e-40 -9.9803e-41 -4.1886e-41
000150 2c 19 01 80 ed cb 00 80 55 94 01 80 bb bb 00 00
       -1.00865e-40 -7.3155e-41 -1.45047e-40 6.7345e-41
000160 53 80 00 80 4c 32 01 00 27 50 01 00 d6 7f 00 00
       -4.6034e-41 1.09879e-40 1.20589e-40 4.5859e-41
000170 d9 bc 00 80 67 8e 01 80 35 80 01 80 0f 09 02 80
       -6.7746e-41 -1.4292e-40 -1.37828e-40 -1.8692e-40
000180 10 92 00 00 c1 44 01 80 cb 91 00 00 32 f4 00 80
       5.2397e-41 -1.165e-40 5.23e-41 -8.7601e-41
000190 4a f5 67 3d fa f0 21 3d 15 9f 07 3d be 26 1c 3d
       0.05663041 0.039536454 0.033110697 0.038122885
0001a0 df 7b 57 3d 27 f6 51 3d 1c 21 07 3d 08 7c df 3c
       0.052608367 0.05126014 0.03299056 0.027280822
0001b0 95 67 02 3d 0c 32 44 3d 66 9c 52 3d c2 a0 07 3d
       0.031837065 0.04789929 0.051418684 0.033112295
0001c0 17 e5 dd 3c 2b d6 06 3d a9 95 45 3d 91 d0 6e 3d
       0.027086778 0.03291909 0.04823843 0.058304373
0001d0 ff 82 25 3d c2 7f 10 3d 69 28 22 3d f5 87 63 3d
       0.04040813 0.03527809 0.03958932 0.05554958
0001e0 4d 9e 92 3d 4a de 5e 3d a9 90 48 3d df da 5b 3d
       0.071591 0.05441121 0.048966084 0.05367553
0001f0 a0 b9 8c 3d 44 55 01 00 3f 9e 01 00 03 6c 01 00
       0.06871343 1.22423e-40 1.48603e-40 1.30583e-40
000200 38 1d 01 80 98 65 01 00 d2 6b 01 80 ad 48 00 00
       -1.02317e-40 1.2828e-40 -1.30514e-40 2.6071e-41
000210 60 22 00 80 04 21 01 80 80 91 00 00 d6 fd 01 00
       -1.2331e-41 -1.03679e-40 5.2196e-41 1.82895e-40
000220 2b 4b 00 00 b1 89 01 00 d0 48 01 00 d0 32 00 80
       2.6965e-41 1.4123e-40 1.17956e-40 -1.8228e-41
000230 09 6e 00 00 7c 63 00 00 a3 04 01 80 79 ca 00 80
       3.9473e-41 3.5688e-41 -9.3499e-41 -7.2634e-41
000240 27 93 00 00 b7 57 01 00 9f 9e 00 00 8e 56 01 80
       5.2788e-41 1.23302e-40 5.6903e-41 -1.22885e-40
000250 2f 70 01 00 7c 08 02 00 92 78 01 80 b8 18 01 00
       1.3208e-40 1.86715e-40 -1.35088e-40 1.00703e-40
000260 45 24 00 80 52 9a 01 80 2b 6f 00 80 4a 3c 01 80
       -1.3011e-41 -1.47195e-40 -3.988e-41 -1.13463e-40
000270 e1 0f 00 00 de 41 00 80 35 72 01 00 0b ed 00 00
       5.696e-42 -2.3629e-41 1.32805e-40 8.5035e-41
000280 d4 08 01 80 d2 40 01 00 0c 1f 02 80 7f 05 00 00
       -9.5002e-41 1.15089e-40 -1.94809e-40 1.972e-42
000290 d0 15 01 80 bb 98 00 80 67 b8 01 00 8b 17 01 80
       -9.966e-41 -5.479e-41 1.57987e-40 -1.00281e-40
0002a0 58 bd 01 80 9a d1 00 00 b7 22 00 00 fe 9b 00 00
       -1.59759e-40 7.5191e-41 1.2453e-41 5.596e-41
0002b0 cc c2 00 80 e4 2e 00 80 9c c7 00 80 5b ed 01 80
       -6.988e-41 -1.6821e-41 -7.1606e-41 -1.76983e-40
0002c0 b4 42 00 80 4e e0 00 80 1c 3e 00 00 7c 5c 01 80
       -2.3929e-41 -8.0465e-41 2.228e-41 -1.25013e-40
0002d0 06 0c 02 80 15 49 00 80 45 5d 01 80 12 20 01 00
       -1.87984e-40 -2.6217e-41 -1.25294e-40 1.0334e-40
0002e0 6e b6 00 00 55 f7 00 80 1a 48 01 00 0d 82 01 80
       6.5443e-41 -8.8726e-41 1.177e-40 -1.38489e-40
0002f0 68 a1 01 80 f3 60 01 80 8b 06 01 80 7d 77 00 80
       -1.49737e-40 -1.26614e-40 -9.4183e-41 -4.2864e-41
000300 cf 32 01 80 5d f4 00 00 1a 5e 00 80 d0 a7 00 80
       -1.10062e-40 8.7661e-41 -3.3757e-41 -6.02e-41
000310 e0 0e 01 00 2a 1a 01 00 1d fd 01 00 33 db 00 80
       9.7172e-41 1.01221e-40 1.82635e-40 -7.8634e-41
000320 45 4a 01 00 1b 45 00 00 c0 08 00 80 04 74 00 80
       1.18478e-40 2.479e-41 -3.139e-42 -4.1619e-41
000330 cf 68 00 80 cb 86 00 80 34 b8 00 80 10 c1 01 80
       -3.7598e-41 -4.8355e-41 -6.608e-41 -1.61093e-40
000340 f6 b5 01 80 1f 1a 01 80 24 54 00 00 dd 5b 00 00
       -1.57111e-40 -1.01206e-40 3.0184e-41 3.2954e-41
000350 fa 1f 01 80 2f 7b 00 80 37 1e 01 00 9b 79 00 80
       -1.03307e-40 -4.419e-41 1.02675e-40 -4.3624e-41
000360 9e 0a 00 80 86 4f 01 00 4b a5 01 80 43 92 00 00
       -3.809e-42 1.20363e-40 -1.51131e-40 5.2469e-41
000370 4a 8d 01 00 00 a5 00 80 a9 a8 00 00 2e 79 00 80
       1.4252e-40 -5.9191e-41 6.0504e-41 -4.3471e-41
000380 46 1c 00 00 7b a2 00 00 24 cf 00 80 7f 51 01 80
       1.0143e-41 5.8287e-41 -7.4308e-41 -1.21071e-40
000390 d6 56 00 80 72 65 00 00 3b cc 00 80 ad 27 01 80
       -3.1151e-41 3.6392e-41 -7.3264e-41 -1.06068e-40
0003a0 cc 4d 01 80 96 89 00 80 b2 5c 00 80 9d 4b 01 80
       -1.19744e-40 -4.9357e-41 -3.3253e-41 -1.1896e-40
0003b0 4f d9 01 00 68 18 00 00 98 61 01 80 d2 a4 00 00
       1.69791e-40 8.755e-42 -1.26846e-40 5.9126e-41
0003c0 7c d6 00 80 23 e2 00 00 16 bb 00 00 a9 30 00 00
       -7.6942e-41 8.1123e-41 6.7114e-41 1.7456e-41
0003d0 55 6f 00 80 3e 1f 00 00 02 3a 01 00 fb 1e 01 80
       -3.9938e-41 1.1208e-41 1.12645e-40 -1.02949e-40
0003e0 b8 79 00 80 5f 3e 01 80 7c c3 00 00 05 4b 00 00
       -4.3664e-41 -1.1421e-40 7.0127e-41 2.6912e-41
0003f0 67 78 00 80 5a e8 00 00 6d 84 01 00 4d 7d 00 00
       -4.3192e-41 8.3352e-41 1.39341e-40 4.495e-41

e_conv_layer3.bias f4 [8]
000000 0b 98 25 bb f0 73 00 00 54 bd 1f 3c f4 b7 d5 bc
       -0.0025267627 4.159e-41 0.009749729 -0.026088692
000010 00 0c 01 80 9f 31 3d 3d 54 28 01 80 22 97 00 80
       -9.614e-41 0.0461899 -1.06303e-40 -5.4216e-41

e_conv_layer4.weight f4 [16, 16, 7, 7]
000000 cc a2 01 80 66 0a 01 00 5c 20 02 00 3e 5b 00 00
       -1.50236e-40 9.5566e-41 1.9528e-40 3.2732e-41
000010 b1 99 01 00 c3 18 00 80 e7 24 00 80 c6 d8 00 80
       1.4697e-40 -8.883e-42 -1.3238e-41 -7.7764e-41
000020 12 5b 00 80 ca d9 01 00 17 37 00 80 e2 5c 00 80
       -3.267e-41 1.69963e-40 -1.9763e-41 -3.332e-41
000030 e1 1f 00 80 85 4c 01 00 7f 5f 01 00 fa bf 01 00
       -1.1436e-41 1.19286e-40 1.26093e-40 1.60704e-40
000040 c4 a1 00 80 dc 8e 00 00 f0 7a 01 00 7c 69 01 00
       -5.803e-41 5.1248e-41 1.35937e-40 1.29676e-40
000050 45 a5 00 80 ec 5b 00 00 2e 8a 01 00 76 ea 01 80
       -5.9288e-41 3.2975e-41 1.41405e-40 -1.75944e-40
000060 5b 31 00 00 2c 74 00 00 98 82 01 00 e6 47 01 00
       1.7705e-41 4.1675e-41 1.38684e-40 1.17628e-40
000070 bb 07 02 00 8f 50 01 80 66 45 01 80 f9 4a 01 00
       1.86444e-40 -1.20734e-40 -1.16731e-40 1.1873e-40
000080 b9 f9 01 80 e1 0d 01 00 60 05 00 00 3a e1 00 00
       -1.81419e-40 9.6814e-41 1.928e-42 8.0796e-41
000090 d4 ac 01 80 b1 e9 01 00 ad 2b 01 80 d6 6c 00 00
       -1.53835e-40 1.75668e-40 -1.07503e-40 3.9043e-41
0000a0 bb f4 00 00 ac 0f 00 80 f6 93 00 00 7c 00 01 00
       8.7793e-41 -5.622e-42 5.3078e-41 9.2009e-41
0000b0 ff eb 01 80 05 24 00 00 01 1e 00 00 8b 4a 01 00
       -1.76495e-40 1.2921e-41 1.0763e-41 1.18576e-40
0000c0 26 4f 00 80 41 97 00 80 71 a1 00 00 88 81 01 80
       -2.8393e-41 -5.426e-41 5.7914e-41 -1.38303e-40
0000d0 7b 32 01 00 30 57 01 00 1c 8a 00 80 09 ab 01 00
       1.09944e-40 1.23112e-40 -4.9544e-41 1.53191e-40
0000e0 d9 59 01 00 25 2e 01 80 1c 1b 02 00 4c 54 00 80
       1.24067e-40 -1.08389e-40 1.93396e-40 -3.024e-41
0000f0 a6 34 00 80 f3 50 01 80 77 32 01 80 b0 19 01 80
       -1.8887e-41 -1.20875e-40 -1.09939e-40 -1.0105e-40
000100 c4 d8 00 80 52 40 01 00 86 e8 00 00 6d b1 01 00
       -7.7761e-41 1.14909e-40 8.3414e-41 1.55484e-40
000110 94 49 01 00 7c 90 01 80 44 21 00 80 6a 27 01 80
       1.1823e-40 -1.43667e-40 -1.1933e-41 -1.05975e-40
000120 eb c8 00 80 c5 84 01 00 c2 82 01 80 cf 1f 00 80
       -7.2076e-41 1.39464e-40 -1.38743e-40 -1.1411e-41
000130 40 02 02 00 51 ba 00 80 dc 84 00 80 6b 87 01 80
       1.84478e-40 -6.6838e-41 -4.7661e-41 -1.40414e-40
000140 55 d0 01 80 0f bc 00 80 86 16 01 80 0b 0d 01 00
       -1.66571e-40 -6.7463e-41 -9.9915e-41 9.6514e-41
000150 f0 b6 00 80 15 fe 01 80 3f 74 00 80 25 0c 01 80
       -6.5626e-41 -1.82983e-40 -4.1701e-41 -9.6192e-41
000160 e0 f8 00 00 13 51 01 80 e8 6f 00 00 32 13 00 00
       8.928e-41 -1.2092e-40 4.0144e-41 6.886e-42
000170 f9 b1 00 80 5e 47 00 00 e7 91 01 00 3f 72 00 00
       -6.3845e-41 2.5602e-41 1.44175e-40 4.0984e-41
000180 fe 61 00 80 e4 cc 01 00 16 6c 01 80 8d fb 00 00
       -3.5153e-41 1.65336e-40 -1.3061e-40 9.024e-41
000190 12 18 01 80 4e f4 00 00 05 21 01 80 0c 09 00 00
       -1.0047e-40 8.764e-41 -1.0368e-40 3.245e-42
0001a0 3e 5f 00 80 73 af 00 80 a0 5a 01 80 d8 4e 01 80
       -3.4166e-41 -6.294e-41 -1.24346e-40 -1.2012e-40
0001b0 a5 67 00 80 56 40 01 80 ec 14 01 80 98 06 02 00
       -3.718e-41 -1.14915e-40 -9.9341e-41 1.86036e-40
0001c0 6a 0d 01 00 fa 91 00 00 d4 9f 00 80 62 d6 00 00
       9.6648e-41 5.2367e-41 -5.7336e-41 7.6906e-41
0001d0 10 15 01 80 1c 8a 00 80 b4 6d 01 00 cb 97 00 80
       -9.9391e-41 -4.9544e-41 1.3119e-40 -5.4453e-41
0001e0 49 5b 00 80 8d b8 01 80 3c 2e 01 00 16 ff 01 00
       -3.2747e-41 -1.5804e-40 1.08421e-40 1.83343e-40
0001f0 5c ab 00 80 76 7e 01 00 bf 1e 00 80 77 32 01 80
       -6.1472e-41 1.37201e-40 -1.103e-41 -1.09939e-40
000200 c9 7f 00 80 27 48 00 00 d4 29 00 00 a7 77 01 00
       -4.584e-41 2.5883e-41 1.5005e-41 1.34759e-40
000210 08 0b 00 00 ae 80 00 00 76 44 00 00 80 61 00 80
       3.957e-42 4.6162e-41 2.4559e-41 -3.4976e-41
000220 dd 28 02 00 9e f4 01 80 9f a0 00 80 d3 ab 00 00
       1.9833e-40 -1.79588e-40 -5.762e-41 6.1639e-41
000230 de 2b 01 80 e4 74 00 80 14 8e 01 00 30 2e 00 00
       -1.07572e-40 -4.1932e-41 1.42804e-40 1.6569e-41
000240 0a 05 01 00 86 bb 00 80 d1 76 01 80 bd 6c 01 00
       9.3643e-41 -6.7271e-41 -1.34459e-40 1.30843e-40
000250 fa 09 00 80 fa 1b 01 80 02 58 01 80 bd cb 00 80
       -3.579e-42 -1.01872e-40 -1.23407e-40 -7.3088e-41
000260 44 93 01 00 d5 bb 01 00 0b 0c 00 80 8a 17 01 00
       1.44664e-40 1.59217e-40 -4.32e-42 1.0028e-40
000270 38 4f 01 00 6b b7 01 00 32 10 00 80 3c ea 00 00
       1.20254e-40 1.57633e-40 -5.81e-42 8.4027e-41
000280 84 de 00 00 6c c6 01 80 95 03 00 80 c9 df 00 00
       7.9824e-41 -1.63016e-40 -1.285e-42 8.0279e-41
000290 2f 24 01 00 a5 15 00 80 71 54 00 00 4e 13 01 80
       1.04816e-40 -7.765e-42 3.0292e-41 -9.8761e-41
0002a0 e3 ea 00 80 96 b8 00 00 0c b1 00 00 48 9c 00 80
       -8.4261e-41 6.6217e-41 6.3512e-41 -5.6063e-41
0002b0 7a c8 00 00 b4 b1 00 00 f9 29 02 80 6b f3 00 00
       7.1917e-41 6.3748e-41 -1.98728e-40 8.7322e-41
0002c0 b9 fd 00 80 81 01 01 80 8f 21 01 80 b7 11 02 80
       -9.1019e-41 -9.2375e-41 -1.03874e-40 -1.90026e-40
0002d0 ab f4 01 00 c8 2d 00 80 dd 7e 01 00 db f9 00 80
       1.79606e-40 -1.6423e-41 1.37345e-40 -8.9631e-41
0002e0 81 36 00 00 23 6c 01 00 57 36 01 80 6a 30 02 80
       1.9552e-41 1.30628e-40 -1.11329e-40 -2.01039e-40
0002f0 b0 43 01 80 46 f2 00 80 2c b7 00 80 92 e3 00 00
       -1.16117e-40 -8.6911e-41 -6.571e-41 8.1637e-41
000300 53 96 00 80 86 2a 01 80 e3 04 01 00 1b 17 01 80
       -5.3926e-41 -1.0709e-40 9.3589e-41 -1.00124e-40
000310 71 b9 00 80 e5 33 01 80 c7 b3 00 00 ff 51 01 00
       -6.6524e-41 -1.10452e-40 6.4492e-41 1.2125e-40
000320 9e 5a 01 00 11 24 00 00 76 05 01 80 19 38 00 80
       1.24343e-40 1.2938e-41 -9.3795e-41 -2.0124e-41
000330 52 90 00 80 93 0a 01 00 8d 31 00 00 f3 3e 01 80
       -5.1772e-41 9.5629e-41 1.7775e-41 -1.14417e-40
000340 21 dc 00 80 b2 13 00 00 db 98 01 00 32 89 00 00
       -7.8967e-41 7.065e-42 1.4667e-40 4.9216e-41
000350 6b 2b 00 00 de 00 01 80 51 6b 00 00 5a 09 01 80
       1.5575e-41 -9.2147e-41 3.8498e-41 -9.519e-41
000360 68 09 01 00 1b e3 00 00 a8 33 01 80 44 36 01 00
       9.521e-41 8.147e-41 -1.10366e-40 1.11302e-40
000370 77 a4 00 80 a8 f4 00 00 55 06 00 80 03 9f 00 80
       -5.8999e-41 8.7766e-41 -2.272e-42 -5.7043e-41
000380 64 58 00 00 3c bd 00 80 78 17 01 00 cc 01 00 00
       3.1709e-41 -6.7885e-41 1.00254e-40 6.45e-43
000390 cc 61 00 80 02 73 01 00 e2 70 00 80 ce 7b 01 00
       -3.5083e-41 1.33093e-40 -4.0495e-41 1.36248e-40
0003a0 20 eb 01 80 21 24 00 80 6c 35 00 80 31 43 01 00
       -1.76182e-40 -1.296e-41 -1.9164e-41 1.15939e-40
0003b0 7c b9 01 00 08 a1 00 80 c6 77 00 80 61 ed 00 00
       1.58375e-40 -5.7767e-41 -4.2967e-41 8.5156e-41
0003c0 c3 89 01 80 cb 80 01 80 1a 1c 00 80 2c 0a 01 80
       -1.41255e-40 -1.38038e-40 -1.0081e-41 -9.5484e-41
0003d0 90 07 01 80 2d 2a 00 80 9a 07 01 80 ac fb 01 00
       -9.4548e-41 -1.513e-41 -9.4562e-41 1.82118e-40
0003e0 da 05 00 80 f4 a1 00 80 f9 c3 00 80 22 26 00 00
       -2.099e-42 -5.8098e-41 -7.0302e-41 1.368e-41
0003f0 55 10 01 80 54 ac 01 80 fa f9 00 00 4d 59 01 80
       -9.7694e-41 -1.53655e-40 8.9675e-41 -1.2387e-40

e_conv_layer4.bias f4 [16]
000000 65 99 00 80 5b 09 00 80 55 10 01 00 52 ed 00 80
       -5.5028e-41 -3.356e-42 9.7694e-41 -8.5134e-41
000010 16 d1 88 b9 61 4b 01 00 11 04 01 00 ee f0 00 00
       -0.00026095723 1.18876e-40 9.3294e-41 8.6429e-41
000020 ca 06 d2 3b 8b f9 00 80 f7 dd 00 00 c7 dd 00 00
       0.0064095007 -8.9519e-41 7.9626e-41 7.9559e-41
000030 a9 8b 68 bb e2 98 00 80 ea 3c 00 80 19 a5 00 00
       -0.0035483635 -5.4844e-41 -2.1852e-41 5.9226e-41

e_conv_layer5.weight f4 [16, 16, 3, 3]
000000 22 36 01 00 2d 2b 02 80 6b 09 02 00 8f 03 00 80
       1.11255e-40 -1.9916e-40 1.8705e-40 -1.277e-42
000010 1b 5e 00 80 6c 43 01 80 0c 2c 01 00 9b a6 00 80
       -3.3759e-41 -1.16022e-40 1.07637e-40 -5.9767e-41
000020 19 10 00 00 bf cc 00 00 f2 48 01 80 82 ed 00 00
       5.775e-42 7.3449e-41 -1.18003e-40 8.5202e-41
000030 58 2b 01 80 b9 f4 00 80 89 78 01 80 14 6e 00 80
       -1.07384e-40 -8.779e-41 -1.35075e-40 -3.9489e-41
000040 e7 4a 00 00 9d 08 01 80 0a 99 00 80 c2 35 01 00
       2.687e-41 -9.4925e-41 -5.49e-41 1.1112e-40
000050 8e 65 01 00 52 41 01 80 93 0c 01 80 b0 69 01 80
       1.28266e-40 -1.15268e-40 -9.6346e-41 -1.29749e-40
000060 41 64 01 80 57 69 00 00 da ff 00 80 9e 38 00 80
       -1.278e-40 3.7789e-41 -9.1782e-41 -2.031e-41
000070 de a9 01 00 45 90 00 00 eb ef 01 00 4b cc 00 00
       1.52772e-40 5.1754e-41 1.77902e-40 7.3287e-41
000080 58 03 00 00 08 88 01 80 52 e1 01 00 da 1d 00 00
       1.2e-42 -1.40634e-40 1.72665e-40 1.0709e-41
000090 f3 38 01 80 f6 a3 00 80 62 09 01 00 de 83 01 80
       -1.12265e-40 -5.8818e-41 9.5201e-41 -1.3914e-40
0000a0 55 66 00 00 2b 3a 01 00 1f b8 00 80 1b 89 00 00
       3.671e-41 1.12702e-40 -6.605e-41 4.9184e-41
0000b0 c0 0e 01 80 d7 bc 01 80 3a c1 00 00 90 6b 01 80
       -9.7127e-41 -1.59578e-40 6.9317e-41 -1.30422e-40
0000c0 aa 8d 00 00 be 08 01 80 a8 47 01 80 1c 7f 00 00
       5.082e-41 -9.4972e-41 -1.17541e-40 4.5598e-41
0000d0 5d b2 01 80 ea 10 01 00 df e5 01 80 56 03 01 80
       -1.5582e-40 9.7903e-41 -1.74298e-40 -9.3032e-41
0000e0 d9 2f 01 00 92 19 01 80 52 aa 01 80 c0 bb 01 80
       1.09e-40 -1.01008e-40 -1.52935e-40 -1.59188e-40
0000f0 a9 af 01 00 6e 00 00 80 e1 a2 01 80 54 45 01 80
       1.5485e-40 -1.54e-43 -1.50265e-40 -1.16706e-40
000100 94 7d 01 80 c2 2f 01 80 1b db 00 00 2e c8 00 80
       -1.36884e-40 -1.08968e-40 7.86e-41 -7.1811e-41
000110 41 ff 01 80 7b d0 00 00 94 43 00 80 c8 60 01 00
       -1.83403e-40 7.4789e-41 -2.4242e-41 1.26554e-40
000120 5b 2d 01 80 35 a7 00 00 d8 b7 00 00 4e 1b 00 80
       -1.08106e-40 5.9983e-41 6.5951e-41 -9.795e-42
000130 29 39 01 80 98 1d 01 00 fb 2a 01 80 0c 93 00 00
       -1.1234e-40 1.02452e-40 -1.07254e-40 5.275e-41
000140 a9 a7 00 80 08 36 01 00 78 32 01 80 64 6f 00 80
       -6.0145e-41 1.11218e-40 -1.0994e-40 -3.996e-41
000150 80 5c 01 00 d0 6c 00 80 5b a1 00 00 b2 06 01 00
       1.25018e-40 -3.9035e-41 5.7883e-41 9.4237e-41
000160 c3 cb 00 00 af e9 00 00 9e e7 00 80 f6 ee 01 00
       7.3096e-41 8.383e-41 -8.3089e-41 1.77559e-40
000170 bf a0 00 00 ac b5 00 00 91 1a 00 00 3d 60 00 80
       5.7665e-41 6.5172e-41 9.53e-42 -3.4524e-41
000180 3f 4b 01 80 71 08 01 00 ba d0 01 80 98 01 02 00
       -1.18829e-40 9.4864e-41 -1.66712e-40 1.84243e-40
000190 01 bb 00 80 5f 07 00 80 9d bc 00 80 4e 84 01 00
       -6.7084e-41 -2.644e-42 -6.7662e-41 1.39297e-40
0001a0 1a af 00 80 ac 74 01 00 4b e6 00 00 10 6d 01 80
       -6.2815e-41 1.3369e-40 8.2614e-41 -1.3096e-40
0001b0 1d 0d 00 80 8b 31 01 00 4f 36 01 00 85 31 01 00
       -4.704e-42 1.09608e-40 1.11318e-40 1.096e-40
0001c0 f0 b5 00 00 a7 5a 01 00 79 0d 02 00 20 9c 00 80
       6.5267e-41 1.24355e-40 1.88504e-40 -5.6007e-41
0001d0 8c c5 00 00 c7 56 00 00 31 88 01 00 67 20 01 80
       7.0866e-41 3.113e-41 1.40692e-40 -1.03459e-40
0001e0 1b cc 00 80 79 12 01 80 fa 23 01 00 13 2f 01 80
       -7.3219e-41 -9.8462e-41 1.04741e-40 -1.08723e-40
0001f0 48 83 01 80 e5 39 01 00 a3 45 00 80 56 a7 01 00
       -1.3893e-40 1.12604e-40 -2.4981e-41 1.51864e-40
000200 89 ae 01 00 95 bd 01 80 4b bc 00 80 ec 6f 01 80
       1.54447e-40 -1.59845e-40 -6.7547e-41 -1.31985e-40
000210 ae 1c 00 80 99 ad 01 80 0a dd 01 80 76 36 01 80
       -1.0288e-41 -1.5411e-40 -1.7113e-40 -1.11372e-40
000220 7d f8 01 00 ce 3e 00 00 b3 94 01 00 ee b0 00 80
       1.80976e-40 2.253e-41 1.45179e-40 -6.347e-41
000230 23 eb 01 80 6a 7d 00 80 e3 e0 00 80 0b 3d 00 00
       -1.76187e-40 -4.499e-41 -8.0674e-41 2.1898e-41
000240 8b 07 00 80 f7 a6 00 80 f7 31 01 00 fd dc 01 00
       -2.706e-42 -5.9896e-41 1.0976e-40 1.71111e-40
000250 ae 3c 01 00 0e 43 01 80 33 49 00 80 b4 21 02 80
       1.13603e-40 -1.1589e-40 -2.6259e-41 -1.95761e-40
000260 74 43 00 00 99 3d 00 00 3e 70 00 00 c9 a4 00 00
       2.4198e-41 2.2097e-41 4.0265e-41 5.9114e-41
000270 5c 3f 01 00 d6 64 00 00 3e 12 01 00 9a ee 00 00
       1.14565e-40 3.6173e-41 9.838e-41 8.5594e-41
000280 c1 5d 01 80 13 3f 00 00 46 17 01 00 8c 71 01 80
       -1.25468e-40 2.2627e-41 1.00184e-40 -1.32568e-40
000290 9d 1b 01 80 c8 19 00 80 06 4c 00 00 39 6f 01 80
       -1.01741e-40 -9.249e-42 2.7272e-41 -1.31735e-40
0002a0 3a cb 00 80 80 22 00 80 2a 56 00 00 01 ae 01 80
       -7.2904e-41 -1.2376e-41 3.091e-41 -1.54256e-40
0002b0 30 a1 00 80 c8 4a 01 00 07 12 01 00 45 e0 00 80
       -5.7823e-41 1.18662e-40 9.8302e-41 -8.0453e-41
0002c0 f1 3b 01 00 30 70 01 80 f4 e2 01 80 13 6a 01 00
       1.13338e-40 -1.32081e-40 -1.73251e-40 1.29888e-40
0002d0 2d bd 01 00 e3 f9 01 00 7b 3e 01 80 26 4f 01 80
       1.59699e-40 1.81478e-40 -1.14249e-40 -1.20229e-40
0002e0 fb e7 00 80 ae b3 01 00 c9 06 01 80 dd 8d 00 00
       -8.3219e-41 1.56292e-40 -9.427e-41 5.0891e-41
0002f0 b0 ee 01 00 8f 5d 01 80 48 6e 00 00 31 a9 01 80
       1.7746e-40 -1.25398e-40 3.9561e-41 -1.5253e-40
000300 d7 52 01 80 35 0a 00 80 bf 40 01 00 78 9f 01 00
       -1.21553e-40 -3.662e-42 1.15062e-40 1.49042e-40
000310 1c ef 01 00 ff a1 01 00 36 6d 00 00 80 85 01 00
       1.77612e-40 1.49949e-40 3.9178e-41 1.39726e-40
000320 c6 86 00 80 03 ea 00 80 b3 af 01 00 39 1d 01 00
       -4.8348e-41 -8.3948e-41 1.54864e-40 1.02319e-40
000330 3c 51 00 80 69 b5 01 00 bd 1d 01 00 fc a2 01 80
       -2.9141e-41 1.56913e-40 1.02504e-40 -1.50303e-40
000340 a9 4d 01 80 26 37 00 80 ed ef 00 00 00 47 00 00
       -1.19695e-40 -1.9784e-41 8.6069e-41 2.547e-41
000350 75 80 01 80 d7 52 00 00 3a a1 01 80 c6 3e 01 80
       -1.37917e-40 2.9717e-41 -1.49673e-40 -1.14354e-40
000360 11 16 01 80 06 02 02 00 3d f4 00 80 ce 28 01 00
       -9.9751e-41 1.84397e-40 -8.7616e-41 1.06473e-40
000370 19 46 00 00 92 0f 01 80 60 cf 00 80 45 45 00 80
       2.5146e-41 -9.7421e-41 -7.4392e-41 -2.4849e-41
000380 ad 45 00 80 96 5f 00 80 a8 13 02 80 17 da 01 80
       -2.4995e-41 -3.429e-41 -1.90722e-40 -1.70071e-40
000390 cf 5a 00 00 15 8a 00 80 3e 41 01 00 46 3a 01 00
       3.2576e-41 -4.9534e-41 1.1524e-40 1.1274e-40
0003a0 5f 07 01 00 f7 af 01 00 02 1c 02 80 d2 9b 00 80
       9.448e-41 1.5496e-40 -1.93718e-40 -5.5898e-41
0003b0 10 32 00 00 87 3d 01 00 74 08 02 00 e8 6a 00 80
       1.7959e-41 1.13907e-40 1.86703e-40 -3.8351e-41
0003c0 cb 35 00 80 b4 1f 01 00 f6 ce 00 80 76 20 00 80
       -1.9297e-41 1.03208e-40 -7.4244e-41 -1.1645e-41
0003d0 fc 81 01 00 0f 99 00 00 6f 3d 01 00 96 94 00 00
       1.38465e-40 5.4907e-41 1.13874e-40 5.3303e-41
0003e0 87 2b 00 80 ee 2c 00 00 07 99 01 80 5c 40 01 80
       -1.5615e-41 1.6118e-41 -1.46731e-40 -1.14923e-40
0003f0 dc 25 00 80 5c 6f 00 00 16 fa 00 80 4e 40 01 80
       -1.3581e-41 3.9948e-41 -8.9714e-41 -1.14904e-40

e_conv_layer5.bias f4 [16]
000000 5f 1e 00 00 35 da 00 00 32 4b 00 80 63 21 97 3c
       1.0895e-41 7.8278e-41 -2.6975e-41 0.018448537
000010 1a 75 75 3c 12 e8 00 80 61 0f 04 3c cb 9e 01 00
       0.0149815325 -8.3251e-41 0.008060307 1.488e-40
000020 46 22 01 80 ff ff 00 00 b8 22 8f 3c 21 20 88 3c
       -1.0413e-40 9.1834e-41 0.01747261 0.016616883
000030 49 70 00 00 93 df 8b 3c 1c 06 d5 3c 79 9a 5d 3c
       4.028e-41 0.017074382 0.02600389 0.013525599

e_conv_layer6.weight f4 [16, 16, 3, 3]
000000 2e 1e 00 00 f6 d1 00 80 07 49 01 80 cc e5 00 00
       1.0826e-41 -7.532e-41 -1.18033e-40 8.2436e-41
000010 47 ea 00 00 39 b9 00 80 94 9c 01 80 57 91 00 80
       8.4043e-41 -6.6445e-41 -1.48005e-40 -5.2138e-41
000020 e8 ee 00 00 03 78 00 80 14 91 00 00 10 30 02 00
       8.5703e-41 -4.3052e-41 5.2044e-41 2.00913e-40
000030 70 2a 02 80 4c 04 00 00 49 20 01 00 99 be 01 00
       -1.98895e-40 1.541e-42 1.03417e-40 1.60209e-40
000040 f3 72 00 80 b7 b8 01 00 71 83 01 80 eb 55 01 80
       -4.1236e-41 1.58099e-40 -1.38988e-40 -1.22657e-40
000050 13 0d 01 00 02 5d 00 00 2e 53 00 80 c7 ed 00 00
       9.6526e-41 3.3365e-41 -2.9839e-41 8.5298e-41
000060 8c 80 00 80 6c f7 01 00 17 61 01 00 a3 a6 00 80
       -4.6114e-41 1.80594e-40 1.26665e-40 -5.9778e-41
000070 c8 ca 00 00 ba 88 01 00 cb 4e 00 00 b7 5f 00 00
       7.2744e-41 1.40884e-40 2.8266e-41 3.4336e-41
000080 80 01 01 00 af d7 00 00 0e 02 01 80 11 0b 01 80
       9.2374e-41 7.7373e-41 -9.2573e-41 -9.5805e-41
000090 62 f2 00 80 06 99 01 00 74 92 00 80 a6 29 01 80
       -8.695e-41 1.4673e-40 -5.2537e-41 -1.06776e-40
0000a0 6a 15 00 00 7b 5c 00 00 e6 82 00 00 05 ef 00 00
       7.682e-42 3.3176e-41 4.6958e-41 8.5744e-41
0000b0 c4 80 00 00 cf 25 00 80 f2 6d 01 80 b0 55 00 80
       4.6192e-41 -1.3563e-41 -1.31276e-40 -3.0739e-41
0000c0 f4 ab 00 80 a3 00 00 80 9a 58 00 80 28 70 01 80
       -6.1685e-41 -2.28e-43 -3.1784e-41 -1.3207e-40
0000d0 fa 34 01 80 99 25 01 00 1c b2 00 00 bf 85 00 80
       -1.1084e-40 1.05323e-40 6.3894e-41 -4.7979e-41
0000e0 3e 82 01 00 07 d8 00 80 de 19 01 00 e0 41 00 80
       1.38558e-40 -7.7496e-41 1.01115e-40 -2.3631e-41
0000f0 fc 8f 00 80 91 4e 01 00 81 64 01 00 f7 1f 01 00
       -5.1652e-41 1.2002e-40 1.2789e-40 1.03302e-40
000100 63 8d 01 00 5e 80 00 80 a4 d0 01 80 3b e3 01 00
       1.42555e-40 -4.605e-41 -1.66682e-40 1.7335e-40
000110 29 e2 00 00 ae 8f 00 80 03 25 01 80 ca 0b 01 80
       8.1131e-41 -5.1543e-41 -1.05113e-40 -9.6065e-41
000120 b4 0c 01 00 9c 56 00 80 82 b2 01 00 0b aa 00 00
       9.6393e-41 -3.107e-41 1.55872e-40 6.1e-41
000130 10 35 01 80 55 2d 01 00 9f 2e 01 00 43 a9 01 00
       -1.10871e-40 1.08098e-40 1.0856e-40 1.52555e-40
000140 f0 57 01 00 9d 6e 00 80 01 f8 01 80 53 02 01 00
       1.23382e-40 -3.968e-41 -1.80803e-40 9.2669e-41
000150 1c 70 00 00 4c 17 01 00 73 8a 00 00 c0 55 01 00
       4.0217e-41 1.00193e-40 4.9666e-41 1.22597e-40
000160 e2 9e 00 80 93 59 01 80 e5 4d 00 80 ad a8 01 80
       -5.6996e-41 -1.23969e-40 -2.7943e-41 -1.52345e-40
000170 74 06 02 80 5b 8e 00 00 96 d8 00 00 73 7d 00 80
       -1.85986e-40 5.1068e-41 7.7696e-41 -4.5003e-41
000180 55 f6 00 00 89 89 01 80 4d 46 01 00 f4 44 00 00
       8.8367e-41 -1.41174e-40 1.17055e-40 2.4736e-41
000190 55 93 01 00 eb 4a 00 00 d5 8d 00 00 a4 7e 01 80
       1.44688e-40 2.6876e-41 5.088e-41 -1.37266e-40
0001a0 7d 77 01 80 24 2c 01 00 bc 1a 01 00 71 70 01 80
       -1.347e-40 1.0767e-40 1.01426e-40 -1.32172e-40
0001b0 43 d1 00 00 54 89 00 80 6c 7f 01 00 46 04 00 80
       7.5069e-41 -4.9264e-41 1.37546e-40 -1.533e-42
0001c0 3b 97 01 00 dd c9 00 80 30 e7 00 80 f9 4a 01 80
       1.46087e-40 -7.2415e-41 -8.2934e-41 -1.1873e-40
0001d0 c4 b2 01 00 2a 59 00 80 a3 8f 01 80 fd 77 00 00
       1.55965e-40 -3.1986e-41 -1.43363e-40 4.3044e-41
0001e0 c5 45 00 00 0d 5f 01 00 af fe 00 00 f7 89 00 80
       2.5029e-41 1.25933e-40 9.1363e-41 -4.9492e-41
0001f0 83 2b 01 80 b2 66 00 80 56 f0 00 00 75 80 00 80
       -1.07445e-40 -3.684e-41 8.6216e-41 -4.6082e-41
000200 92 ef 01 80 c3 89 00 80 24 1c 00 80 40 c2 01 80
       -1.77777e-40 -4.942e-41 -1.0095e-41 -1.61519e-40
000210 7e 22 01 00 e9 ef 00 80 59 f2 00 00 8c 3d 01 80
       1.04209e-40 -8.6064e-41 8.6938e-41 -1.13914e-40
000220 05 be 01 00 ea 6b 01 80 b5 8a 00 80 8e 46 01 00
       1.60002e-40 -1.30548e-40 -4.9759e-41 1.17146e-40
000230 5f 10 01 80 5e ce 00 00 59 a0 01 80 bd 67 00 80
       -9.7708e-41 7.403e-41 -1.49357e-40 -3.7214e-41
000240 6b a4 00 80 9d 1a 01 00 c4 68 00 00 83 2e 02 80
       -5.8982e-41 1.01383e-40 3.7583e-41 -2.00356e-40
000250 32 42 00 80 0e 3f 01 80 3d 66 01 80 04 4c 01 00
       -2.3746e-41 -1.14455e-40 -1.28512e-40 1.19105e-40
000260 01 2c 00 00 2c ff 01 00 12 ab 00 80 e0 34 01 80
       1.5786e-41 1.83374e-40 -6.1368e-41 -1.10803e-40
000270 1c 11 01 80 d2 ac 01 00 93 24 02 00 93 71 01 80
       -9.7973e-41 1.53832e-40 1.96791e-40 -1.32578e-40
000280 98 56 01 80 7e 61 01 80 fb b3 01 80 69 bd 01 00
       -1.229e-40 -1.26809e-40 -1.564e-40 1.59783e-40
000290 21 ea 00 00 06 cf 01 00 ab 0d 01 80 13 0c 02 80
       8.399e-41 1.66102e-40 -9.6739e-41 -1.88002e-40
0002a0 f7 71 01 00 fb 9e 01 80 49 09 02 00 6a 74 01 00
       1.32718e-40 -1.48867e-40 1.87002e-40 1.33597e-40
0002b0 00 91 01 80 08 ac 00 80 ad 4b 01 80 7c 24 00 00
       -1.43852e-40 -6.1713e-41 -1.18983e-40 1.3088e-41
0002c0 c2 43 00 00 0b 3f 01 80 f3 0a 01 80 38 d3 00 80
       2.4307e-41 -1.14451e-40 -9.5763e-41 -7.5771e-41
0002d0 a9 19 01 00 30 98 00 80 2a 95 00 00 e2 23 00 80
       1.0104e-40 -5.4595e-41 5.351e-41 -1.2872e-41
0002e0 54 a0 00 00 6c 7b 00 00 72 e0 00 80 e7 56 00 00
       5.7515e-41 4.4275e-41 -8.0516e-41 3.1175e-41
0002f0 0a 9c 01 80 46 5c 00 80 83 59 01 80 b3 34 00 00
       -1.47812e-40 -3.3101e-41 -1.23946e-40 1.8905e-41
000300 62 15 02 80 c0 78 00 80 32 ed 00 80 fd 59 00 00
       -1.91342e-40 -4.3317e-41 -8.509e-41 3.2282e-41
000310 c1 20 00 80 0d 91 01 00 3c 6b 01 00 78 5b 00 00
       -1.175e-41 1.4387e-40 1.30304e-40 3.2813e-41
000320 81 3c 01 00 ea 75 01 80 00 17 00 00 bd 1e 01 80
       1.1354e-40 -1.34135e-40 8.251e-42 -1.02862e-40
000330 a0 0d 00 00 8b 82 01 80 8b 66 00 80 a2 12 01 80
       4.888e-42 -1.38665e-40 -3.6785e-41 -9.852e-41
000340 cf b8 00 80 5a 50 01 80 13 be 00 00 30 d5 00 80
       -6.6297e-41 -1.2066e-40 6.8186e-41 -7.6477e-41
000350 f3 f5 01 00 81 6c 01 80 f1 fe 00 00 da 1d 00 80
       1.80065e-40 -1.3076e-40 9.1456e-41 -1.0709e-41
000360 95 d2 00 80 a1 30 02 80 b1 e9 00 80 5f 61 01 00
       -7.5543e-41 -2.01116e-40 -8.3833e-41 1.26766e-40
000370 26 1f 01 80 ab 3a 01 00 c8 8e 01 00 eb 0c 01 80
       -1.0301e-40 1.12882e-40 1.43056e-40 -9.647e-41
000380 02 48 00 00 21 29 02 80 8a 8d 00 80 9f 2e 02 00
       2.5832e-41 -1.98425e-40 -5.0775e-41 2.00395e-40
000390 39 36 00 00 f1 49 01 00 ab 31 01 80 7b ba 01 00
       1.9451e-41 1.1836e-40 -1.09653e-40 1.58732e-40
0003a0 d1 03 02 80 74 5c 01 80 e9 4d 00 80 34 51 01 80
       -1.8504e-40 -1.25001e-40 -2.7949e-41 -1.20966e-40
0003b0 d1 3f 00 80 de 26 02 00 15 29 01 00 42 e9 00 00
       -2.2893e-41 1.97614e-40 1.06573e-40 8.3677e-41
0003c0 fb 51 01 80 61 02 01 00 46 18 01 80 f1 1c 01 80
       -1.21245e-40 9.2689e-41 -1.00543e-40 -1.02218e-40
0003d0 5f aa 00 80 ee 0c 01 00 d8 29 01 80 85 07 00 80
       -6.1118e-41 9.6474e-41 -1.06846e-40 -2.697e-42
0003e0 cd ed 01 00 66 20 00 80 70 47 01 00 0f 4b 01 80
       1.77142e-40 -1.1622e-41 1.17462e-40 -1.18761e-40
0003f0 d9 ae 00 00 2c 20 01 80 d5 82 01 80 56 f7 00 80
       6.2724e-41 -1.03377e-40 -1.38769e-40 -8.8727e-41

e_conv_layer6.bias f4 [16]
000000 c8 04 00 00 0e 5b 01 00 c6 39 01 80 2b 29 00 80
       1.715e-42 1.245e-40 -1.1256e-40 -1.4768e-41
000010 20 a7 00 00 e3 26 00 00 19 4a 00 80 73 ad 00 00
       5.9953e-41 1.395e-41 -2.6581e-41 6.2222e-41
000020 18 1f 01 00 f1 50 01 00 ed 31 00 00 eb 65 01 80
       1.0299e-40 1.20872e-40 1.791e-41 -1.28397e-40
000030 9a a3 00 80 b0 3a 01 00 94 3a 00 00 5c 68 00 00
       -5.8689e-41 1.12889e-40 2.1014e-41 3.7437e-41

e_conv_layer7.weight f4 [32, 32, 3, 3]
000000 b5 36 00 80 43 96 01 00 1c 07 00 00 30 b1 01 00
       -1.9625e-41 1.45739e-40 2.55e-42 1.55398e-40
000010 be 3c 01 00 c6 9d 00 00 37 2a 01 00 74 0d 01 00
       1.13626e-40 5.6598e-41 1.0698e-40 9.6662e-41
000020 06 b5 01 00 cb c4 01 00 09 e4 00 00 5d 5f 00 80
       1.56774e-40 1.62432e-40 8.1804e-41 -3.421e-41
000030 fe 75 00 00 d6 34 02 80 07 2a 01 80 da 31 01 00
       4.2328e-41 -2.02625e-40 -1.06912e-40 1.09719e-40
000040 25 b5 00 00 4b 3f 01 80 50 7d 00 80 fc 11 00 00
       6.4982e-41 -1.14541e-40 -4.4954e-41 6.452e-42
000050 b6 bf 01 80 39 c5 00 00 93 33 01 00 6c 98 00 80
       -1.60608e-40 7.075e-41 1.10337e-40 -5.4679e-41
000060 74 2f 01 00 ff 84 00 80 d6 48 00 00 22 50 00 00
       1.08858e-40 -4.771e-41 2.6129e-41 2.8746e-41
000070 25 0e 01 00 ba 8a 00 80 d7 91 01 80 6c a0 01 00
       9.691e-41 -4.9766e-41 -1.44153e-40 1.49384e-40
000080 60 69 00 80 b9 69 01 80 99 b1 01 80 e1 25 01 80
       -3.7801e-41 -1.29762e-40 -1.55546e-40 -1.05424e-40
000090 91 4b 01 80 b8 9f 00 80 6d 00 00 00 0b 3b 00 80
       -1.18944e-40 -5.7296e-41 1.53e-43 -2.118e-41
0000a0 21 27 00 00 16 dc 00 00 be 2b 01 00 f3 56 01 00
       1.4037e-41 7.8952e-41 1.07527e-40 1.23027e-40
0000b0 e6 86 00 00 15 13 01 80 0a df 00 00 0e 40 00 80
       4.8392e-41 -9.8681e-41 8.0011e-41 -2.2978e-41
0000c0 4e 50 01 00 c5 27 02 00 2e 20 00 00 a9 fc 00 80
       1.20643e-40 1.97938e-40 1.1544e-41 -9.0637e-41
0000d0 81 a6 00 80 26 7c 00 00 71 11 01 80 c7 ef 01 00
       -5.973e-41 4.4536e-41 -9.8092e-41 1.77851e-40
0000e0 1b 35 01 00 76 3f 00 80 7f 3a 01 80 1c ed 01 00
       1.10886e-40 -2.2765e-41 -1.1282e-40 1.76894e-40
0000f0 91 04 02 00 3d 04 01 00 c9 6d 00 00 69 2d 00 80
       1.85309e-40 9.3356e-41 3.9383e-41 -1.629e-41
000100 67 49 01 80 00 37 01 80 51 f4 00 80 a4 94 00 80
       -1.18167e-40 -1.11566e-40 -8.7644e-41 -5.3322e-41
000110 f9 97 01 00 47 64 01 00 71 89 01 00 33 87 01 80
       1.46353e-40 1.27808e-40 1.4114e-40 -1.40336e-40
000120 a6 65 01 80 aa d1 00 80 0a 88 01 00 2a af 01 00
       -1.283e-40 -7.5213e-41 1.40637e-40 1.54673e-40
000130 8c 25 01 00 3f 12 01 00 c9 8e 00 00 5d a6 01 80
       1.05305e-40 9.8381e-41 5.1222e-41 -1.51515e-40
000140 8f 72 00 80 54 8e 00 00 a8 32 00 00 4f de 00 00
       -4.1096e-41 5.1058e-41 1.8172e-41 7.9749e-41
000150 0c 82 01 00 de 95 01 00 3d 65 01 80 e3 5b 00 00
       1.38488e-40 1.45598e-40 -1.28153e-40 3.2963e-41
000160 c1 bd 00 80 53 71 00 80 3c 48 01 80 b1 77 00 00
       -6.8071e-41 -4.0653e-41 -1.17748e-40 4.2937e-41
000170 9d 77 00 00 c5 5c 01 80 51 7a 01 80 29 8c 01 00
       4.2909e-41 -1.25115e-40 -1.35714e-40 1.42115e-40
000180 a8 bc 01 80 cb f2 01 80 54 50 00 00 54 7d 00 00
       -1.59513e-40 -1.78933e-40 2.8816e-41 4.4959e-41
000190 8e 35 01 00 23 ac 01 00 81 33 02 00 f5 44 00 00
       1.11047e-40 1.53587e-40 2.02147e-40 2.4737e-41
0001a0 45 e3 00 80 ab 32 02 80 14 08 01 00 9b 92 00 00
       -8.1529e-41 -2.01847e-40 9.4733e-41 5.2592e-41
0001b0 61 99 01 00 0d 66 01 00 b8 96 00 80 7a a3 00 00
       1.46857e-40 1.28444e-40 -5.4068e-41 5.8644e-41
0001c0 db b6 00 80 c9 0a 01 00 83 e8 00 80 d2 07 01 80
       -6.5596e-41 9.5704e-41 -8.341e-41 -9.4641e-41
0001d0 f3 c5 00 80 e5 41 00 00 7f 80 01 80 d5 9e 00 00
       -7.1011e-41 2.3639e-41 -1.37931e-40 5.6978e-41
0001e0 cd 90 00 00 ec a3 01 80 bb 38 01 80 54 94 00 00
       5.1945e-41 -1.5064e-40 -1.12187e-40 5.321e-41
0001f0 36 aa 00 80 34 11 00 80 5c 01 01 00 3e 25 02 00
       -6.106e-41 -6.171e-42 9.2323e-41 1.97031e-40
000200 76 cc 01 00 ba 6a 01 00 c1 31 02 00 de d0 01 00
       1.65182e-40 1.30122e-40 2.0152e-40 1.66763e-40
000210 2e 00 01 80 b9 24 02 00 11 24 02 00 d4 a2 01 00
       -9.19e-41 1.96845e-40 1.96609e-40 1.50247e-40
000220 06 03 01 00 32 41 01 00 bb 90 00 00 74 5c 00 00
       9.292e-41 1.15223e-40 5.192e-41 3.3166e-41
000230 4b f1 01 80 4b ef 00 80 20 2b 01 80 76 ff 01 80
       -1.78395e-40 -8.5842e-41 -1.07306e-40 -1.83478e-40
000240 85 a5 00 00 2d ba 00 00 6b 30 01 00 59 58 00 80
       5.9377e-41 6.6787e-41 1.09205e-40 -3.1693e-41
000250 b4 7e 00 00 4a 93 00 80 d4 9e 01 80 b0 6b 01 80
       4.5453e-41 -5.2837e-41 -1.48812e-40 -1.30466e-40
000260 53 2f 01 00 0f 9b 00 80 ab ff 00 80 b6 be 01 00
       1.08812e-40 -5.5625e-41 -9.1716e-41 1.6025e-40
000270 e6 07 00 80 e5 d7 00 80 8b 06 00 00 44 93 00 80
       -2.833e-42 -7.7448e-41 2.347e-42 -5.2829e-41
000280 b8 8e 00 80 9c a3 00 00 54 f4 00 00 d4 14 01 80
       -5.1198e-41 5.8692e-41 8.7648e-41 -9.9307e-41
000290 a3 cc 00 00 d8 71 01 00 22 1f 01 00 f1 d4 00 00
       7.341e-41 1.32675e-40 1.03004e-40 7.6389e-41
0002a0 10 a6 01 00 1a 17 02 00 7a 9a 01 00 63 21 00 80
       1.51407e-40 1.91958e-40 1.47251e-40 -1.1977e-41
0002b0 b0 92 00 80 21 ef 00 80 33 1b 01 80 7e 2a 01 00
       -5.2622e-41 -8.5783e-41 -1.01593e-40 1.07079e-40
0002c0 5b 38 01 80 d5 44 01 80 d7 9f 00 00 5b 07 02 00
       -1.12052e-40 -1.16528e-40 5.734e-41 1.8631e-40
0002d0 ee 06 02 80 bc 77 01 00 59 8c 01 80 98 f9 01 00
       -1.86157e-40 1.34788e-40 -1.42183e-40 1.81373e-40
0002e0 cd 86 01 00 d1 e0 01 00 71 16 02 00 73 fe 01 80
       1.40193e-40 1.72484e-40 1.91721e-40 -1.83115e-40
0002f0 e7 08 02 80 3b 00 01 80 ab 8b 00 80 f7 47 01 80
       -1.86865e-40 -9.1918e-41 -5.0103e-41 -1.17652e-40
000300 89 cc 00 00 80 8f 01 80 bc 49 01 00 19 17 01 00
       7.3373e-41 -1.43314e-40 1.18286e-40 1.00121e-40
000310 67 ba 00 00 01 43 01 80 6a 7c 00 00 20 3b 00 80
       6.6869e-41 -1.15872e-40 4.4631e-41 -2.121e-41
000320 34 be 00 80 76 45 00 00 aa 3f 01 80 ca 22 00 00
       -6.8232e-41 2.4918e-41 -1.14674e-40 1.248e-41
000330 dc 65 00 80 14 11 00 80 11 1f 01 00 5c a2 01 00
       -3.654e-41 -6.126e-42 1.0298e-40 1.50079e-40
000340 81 82 00 00 8b a8 01 00 85 d9 00 80 aa cd 01 00
       4.6816e-41 1.52297e-40 -7.8031e-41 1.65614e-40
000350 01 82 00 80 b9 eb 01 00 23 6d 01 80 51 86 01 80
       -4.6637e-41 1.76397e-40 -1.30986e-40 -1.40019e-40
000360 95 2e 00 80 7d ba 00 00 12 29 00 00 87 48 01 80
       -1.671e-41 6.69e-41 1.4733e-41 -1.17853e-40
000370 69 d8 00 00 f3 b3 01 00 fc b6 00 00 27 f5 00 00
       7.7633e-41 1.56389e-40 6.5642e-41 8.7944e-41
000380 28 a8 01 00 08 fe 00 00 b4 b1 00 80 4f 41 01 80
       1.52159e-40 9.1129e-41 -6.3748e-41 -1.15264e-40
000390 d0 07 00 80 39 08 01 00 19 c1 00 80 d1 20 02 00
       -2.803e-42 9.4785e-41 -6.927e-41 1.95443e-40
0003a0 72 0f 01 80 6c f7 00 80 2b 8e 00 00 c7 96 01 00
       -9.7376e-41 -8.8758e-41 5.1e-41 1.45924e-40
0003b0 e3 ea 01 00 de 55 00 80 31 4d 00 00 e6 c4 00 00
       1.76097e-40 -3.0803e-41 2.7691e-41 7.0634e-41
0003c0 86 28 00 00 f9 c5 01 00 bb 96 01 80 23 40 01 00
       1.4537e-41 1.62855e-40 -1.45907e-40 1.14843e-40
0003d0 72 ff 00 80 7a 4b 00 80 f8 69 01 00 45 ce 00 80
       -9.1637e-41 -2.7076e-41 1.2985e-40 -7.3996e-41
0003e0 a8 2c 01 80 cf ff 01 00 13 78 00 00 44 cb 01 80
       -1.07855e-40 1.83602e-40 4.3075e-41 -1.64753e-40
0003f0 fd 11 01 00 31 c1 00 80 fd 47 00 00 a2 6c 00 00
       9.8288e-41 -6.9304e-41 2.5825e-41 3.897e-41

e_conv_layer7.bias f4 [32]
000000 dd 40 00 00 b8 9a 4a 3c 6f 07 01 80 8e ed 00 80
       2.3269e-41 0.012365989 -9.4502e-41 -8.5219e-41
000010 18 d9 00 00 1b 7d 00 80 38 ee 2e 3c 4b 0a 01 80
       7.7879e-41 -4.488e-41 0.010676913 -9.5528e-41
000020 a6 2f 02 00 42 ef 00 80 14 b0 00 00 df 53 cc 3c
       2.00764e-40 -8.583e-41 6.3165e-41 0.024942337
000030 44 be 92 3c 7f ed 00 00 c8 30 01 80 98 35 00 00
       0.017912991 8.5198e-41 -1.09335e-40 1.9226e-41
000040 2a 5f 96 3c ab 35 01 00 82 b4 7c 3c fe fe 00 80
       0.018355925 1.11088e-40 0.015423896 -9.1474e-41
000050 0c 1b 00 80 f0 02 02 80 2d e8 c4 3b b1 dd 01 80
       -9.703e-42 -1.84725e-40 0.006009123 -1.71363e-40
000060 e5 17 01 00 60 e9 35 3c af f6 01 00 4e 59 01 00
       1.00407e-40 0.011103004 1.80329e-40 1.23872e-40
000070 a0 4c 00 00 05 c8 00 00 75 aa 69 3c ae 26 01 00
       2.7488e-41 7.1753e-41 0.0142618315 1.05711e-40
